pytorch_card_model/best_model.pt (torch, 133047 bytes, 7 tensors)

id_embed.weight f4 [102, 32]
0	0x3f666b8a	0.9000784
1	0x3ef136d6	0.4711215
2	0x3f442119	0.76613003
3	0x3d5e6c01	0.05430222
4	0xbfa33cb8	-1.2752905
5	0xbf864e07	-1.0492562
6	0x3fa6add6	1.30218
7	0xc007e4ed	-2.1233475
8	0xbe288586	-0.16457185
9	0x3f53aed1	0.82688624
10	0x3ef2d294	0.47426283
11	0xbfaa1532	-1.3287718
12	0xbfa09bcd	-1.2547547
13	0xbe38e415	-0.18055756
14	0xbf7067c1	-0.93908316
15	0xbe83d1aa	-0.25745898
16	0x3f401ade	0.75040996
17	0x3f1ac2fe	0.60453784
18	0x3fcb8b68	1.5901918
19	0x3f24d336	0.6438478
20	0xbf8eecdb	-1.1166033
21	0x3ee1dd8b	0.44114336
22	0x3baaeeb4	0.005216444
23	0x3f0c0fc0	0.5471153
24	0xc05e2541	-3.4710238
25	0xbfa4e605	-1.2882696
26	0x3f79f95d	0.97646123
27	0x40092a32	2.1432004
28	0x3daa8604	0.08326343
29	0xbf1598cf	-0.5843629
30	0x3f11ce6e	0.5695561
31	0x40046abb	2.0690143
32	0xbf26d81a	-0.65173495
33	0x3c681850	0.014165953
34	0x3e8fc9c6	0.28083628
35	0xbf433522	-0.7625295
36	0x3f55ae30	0.83468914
37	0x3e58a6c8	0.21157372
38	0xbff3a850	-1.903574
39	0xbdafbca1	-0.085809
40	0xbf598b69	-0.8497835
41	0xbf5421b6	-0.8286394
42	0xbfdb337a	-1.7125084
43	0xc029cd4b	-2.653155
44	0xbe79e092	-0.24402073
45	0xbe6a81e1	-0.22901107
46	0x3f2bf6c3	0.67173404
47	0x3f897135	1.0737673
48	0xbfe55c1c	-1.7918735
49	0x3eec4058	0.4614284
50	0xbee49fa8	-0.44653058
51	0xbeb9fd1b	-0.36325917
52	0xc0080f8a	-2.1259484
53	0x3c5aa2ca	0.013344476
54	0x3f47774e	0.7791642
55	0x3f2bc173	0.67092055
56	0xbcb4db83	-0.022077328
57	0x3f29a1c2	0.6626245
58	0x3f833e5a	1.0253403
59	0x3f893075	1.0717913
60	0x3ddaf352	0.10690941
61	0x3ee206cb	0.44145808
62	0x402ab812	2.6674848
63	0xbf76b687	-0.96372265
64	0xbfbffdd8	-1.4999342
65	0xbe8314bf	-0.25601766
66	0x3f44b6a8	0.7684121
67	0xbf81a8af	-1.0129603
68	0xbd9de42b	-0.07709535
69	0xbf5ac6ec	-0.8545978
70	0xbfa21b38	-1.2664557
71	0x3f4da87d	0.8033522
72	0x3ea73adb	0.3266209
73	0xbe799b2e	-0.24375603
74	0x3ee32d4c	0.44370496
75	0xbe468f6e	-0.19390652
76	0xc00a83bf	-2.1642911
77	0x3f0f1bdf	0.559019
78	0xc073d651	-3.8099558
79	0xbf4bb01d	-0.795656
80	0x3e0cbca6	0.13743839
81	0xbf8eee7f	-1.1166533
82	0xbc1797e0	-0.009252518
83	0xbea48482	-0.32132345
84	0xbe3ea219	-0.18616523
85	0xbfeec1a5	-1.8652846
86	0x3f797c3e	0.97455204
87	0xbf094cc8	-0.53632784
88	0xbee503ee	-0.4472956
89	0xbe647238	-0.22309196
90	0x3d100cae	0.035168342
91	0x3dbf3176	0.09335606
92	0xbeeee396	-0.4665801
93	0x3f294783	0.66124743
94	0xc013085c	-2.2973852
95	0x3f16b1fc	0.5886533
96	0x4028a0e1	2.6348193
97	0xbdd3e280	-0.10345936
98	0x3f852501	1.0401918
99	0x3f296e01	0.6618348
100	0x3eef4e59	0.46739462
101	0xbef4f2c7	-0.47841474
102	0xbe1c399b	-0.1525635
103	0xc032f3c6	-2.7961287
104	0x3f7253df	0.9465923
105	0xbee4ad50	-0.44663477
106	0xbfe2acf8	-1.7709036
107	0x3f49f49f	0.7888889
108	0xbeedcb98	-0.46444392
109	0x3ec7e049	0.39038303
110	0xbd5d7645	-0.05406787
111	0xbfcc793e	-1.59745
112	0x3e0031bf	0.12518977
113	0x3f249eb6	0.64304674
114	0xbfa58583	-1.293137
115	0x3f3c6d99	0.7360473
116	0xbfe265cd	-1.7687317
117	0x40184465	2.3791745
118	0xc01f036b	-2.4845836
119	0xc018ea2e	-2.3892932
120	0x3ffa5bad	1.9559227
121	0xbf8c5007	-1.0961922
122	0x3f29f141	0.6638375
123	0xbd39b4d3	-0.045338463
124	0xbfb25fb4	-1.3935456
125	0xbfac357e	-1.3453825
126	0xbfa49b01	-1.2859803
127	0x3f44e41a	0.76910555
128	0xbfa10795	-1.2580439
129	0x3f5e18db	0.86756676
130	0xbd6517a1	-0.055930737
131	0x3fa5bd9b	1.2948488
132	0xbfd7c09e	-1.6855657
133	0x3f47b4a3	0.78010005
134	0xbf00085e	-0.5001277
135	0x3e9ab893	0.30218944
136	0x3fcaa053	1.5830177
137	0x3fb83fef	1.4394511
138	0xbebedb9a	-0.37276918
139	0x3f4b1b68	0.79338694
140	0x3e5c179d	0.21493383
141	0x3ef686dd	0.48149768
142	0xbed2e38f	-0.41189238
143	0x3fbc2ffc	1.4702144
144	0x3f19ae58	0.6003165
145	0x3efb5834	0.4909073
146	0xbe4581fb	-0.19287865
147	0x3c8ee4d9	0.017443107
148	0x3e302cd2	0.17204598
149	0x3c868bb3	0.016424036
150	0x3dd4f149	0.10397584
151	0xbff8b6c5	-1.9430777
152	0xbee174e7	-0.44034502
153	0xbd550fca	-0.05201701
154	0x4042f4f5	3.046201
155	0x3f4185a7	0.7559456
156	0x3f590d3f	0.84785837
157	0x3e6f38d1	0.23361517
158	0x3ebac5c5	0.3647901
159	0x3fa8af60	1.317852
160	0x3f4e9cb6	0.8070787
161	0xbfa41ec0	-1.2821884
162	0xbf824e16	-1.018008
163	0xbec35b20	-0.3815546
164	0xbf279db0	-0.6547499
165	0x3eaeb056	0.3411891
166	0x3ebce2ba	0.3689173
167	0x3f3880e6	0.72071683
168	0xbea6ea7e	-0.32600778
169	0x3f3f5a66	0.7474731
170	0xbf5708ff	-0.839981
171	0xbfab31b1	-1.337454
172	0x3ee0c2b8	0.4389856
173	0xbe84e2f7	-0.2595441
174	0x3d74944f	0.05971175
175	0xbd252f85	-0.04032852
176	0xbfa08377	-1.254012
177	0x3ef550f0	0.47913313
178	0xbf3ab603	-0.7293398
179	0x3f0016f3	0.5003502
180	0x3f4194ff	0.75617975
181	0xbf569074	-0.8381417
182	0xbf8a9810	-1.0827656
183	0x3f0abbf0	0.5419302
184	0xbfb514eb	-1.4147009
185	0xbf81be0b	-1.0136122
186	0xbd0011fa	-0.031267144
187	0x3f2b96c5	0.6702693
188	0x400f03f6	2.2346168
189	0x3eda9149	0.4268897
190	0x3ea77d7c	0.32712924
191	0x3ff42a50	1.9075413
192	0x3f6a7802	0.9158937
193	0x3f69255a	0.9107262
194	0xbe1c1035	-0.15240557
195	0x3d1dd040	0.03852868
196	0x3f7edf6f	0.9955968
197	0x3f34703c	0.70483756
198	0x3f08d8f2	0.5345603
199	0x3e8223d9	0.25417975
200	0xbeed57d1	-0.4635606
201	0x3f852427	1.0401658
202	0x3f042acc	0.516278
203	0x3f8b075a	1.0861619
204	0x3eac42d7	0.33644745
205	0xbfe153e6	-1.7603729
206	0xbde829ac	-0.11336073
207	0xbefbeeac	-0.4920553
208	0x3f29f87d	0.6639479
209	0x3fa33752	1.2751257
210	0xbf036130	-0.5132017
211	0x3f94bbee	1.1619852
212	0x3f6ab2c8	0.9167905
213	0x3ea99804	0.3312379
214	0x3f84c022	1.0371134
215	0xbd110a0c	-0.035409972
216	0x3ed9f5b8	0.4257028
217	0x3f99024c	1.1953826
218	0x3f8372d9	1.0269424
219	0x3e9c5521	0.30533698
220	0x3f07d329	0.5305658
221	0x3f1fc11d	0.6240404
222	0x3e6b9684	0.23006636
223	0xbf794fdd	-0.97387487
224	0xc005c71b	-2.0902774
225	0xbd90afba	-0.07064767
226	0x3e1fa22f	0.15589212
227	0xc060495f	-3.5044782
228	0x3e92f0a9	0.28699234
229	0xbf4f48de	-0.8097056
230	0xbddfd528	-0.10929328
231	0x3f0a818d	0.5410393
232	0x3e4df36b	0.20112388
233	0x3e9dcab9	0.30818728
234	0xbfd274c5	-1.6441885
235	0x3f9280e2	1.1445582
236	0x3e2b79fb	0.1674575
237	0xbccee0b2	-0.025253627
238	0x40183304	2.3781137
239	0x3e0c2f92	0.13690022
240	0x3f01f775	0.50768214
241	0xbf752cad	-0.95771295
242	0xbf8949a5	-1.07256
243	0x3f29d346	0.66338
244	0x3f1a9895	0.6038907
245	0xbf93ece7	-1.1556672
246	0xbe2d8dde	-0.1694865
247	0xbfdda930	-1.7317257
248	0x3f0d5390	0.5520563
249	0x3efe3ab4	0.49654162
250	0x3e23a937	0.15982519
251	0xbed26a9b	-0.4109696
252	0xbf4d5cea	-0.802199
253	0xbd6bc1b2	-0.05755777
254	0x3faeb773	1.3649734
255	0x3f65ba19	0.8973709

lvl_embed.weight f4 [14, 8]
0	0xbfb1a8c7	-1.3879632
1	0x3fa7066b	1.3048834
2	0xbed757fb	-0.4205931
3	0x3e6146c1	0.21999647
4	0xbebf0927	-0.3731167
5	0x3f9bb2f8	1.2163992
6	0xbf2103de	-0.62896526
7	0x3fc00771	1.5002271
8	0xbe6dd71c	-0.23226589
9	0x3e7e1d26	0.24815807
10	0x4076d755	3.8568928
11	0xbe21b949	-0.15793337
12	0x3f7fea96	0.99967325
13	0xbe790c6e	-0.24321148
14	0x3f0a8e19	0.54123074
15	0xc028b357	-2.635946
16	0xc028a682	-2.6351628
17	0x406f5582	3.739594
18	0x3fbe80ac	1.4883018
19	0x3fac9cf6	1.3485401
20	0x3f01fc13	0.5077526
21	0x3bdcf5bb	0.0067431605
22	0x3ea8fb9b	0.3300446
23	0x3e42847c	0.18995851
24	0xbfb9da5c	-1.4519763
25	0x3fc71a43	1.555489
26	0x40187edb	2.3827426
27	0x3f3737d6	0.71569574
28	0x3f854602	1.041199
29	0xbf5ab0b9	-0.8542591
30	0xc013b885	-2.3081372
31	0x3e2e0a88	0.16996205
32	0xbfe9599b	-1.823047
33	0x3ece9f39	0.40355852
34	0x40143741	2.3158724
35	0x3fad22cd	1.3526245
36	0x3f80784a	1.0036709
37	0xbea1a1cf	-0.31568763
38	0xbdc0da62	-0.09416653
39	0xbf73d41d	-0.95245534
40	0xbfcac720	-1.5842018
41	0x3f451789	0.76989037
42	0x3fa0591d	1.2527195
43	0x3f2e8b49	0.6818128
44	0x3f84620e	1.0342424
45	0x3fbb5ef4	1.4638352
46	0xbf0a0aa3	-0.5392248
47	0xbff4b974	-1.9119096
48	0xc084cd86	-4.1500883
49	0xbefd9040	-0.49524117
50	0xbe0c94eb	-0.13728683
51	0x3fa8a722	1.3176005
52	0x3f85e7a8	1.0461321
53	0x3e62656f	0.22109006
54	0xbff03b5c	-1.8768115
55	0xbfeb640d	-1.8389908
56	0xbfe9837d	-1.8243252
57	0x3f003d83	0.5009386
58	0x3eeb4280	0.45949173
59	0xbf313b39	-0.6923099
60	0x400cc022	2.1992269
61	0x3e6e5613	0.23275022
62	0xbe732f42	-0.23748496
63	0xbffc593e	-1.9714735
64	0xc01eb0ba	-2.4795365
65	0x3d83770d	0.064191915
66	0x3ed43513	0.41446742
67	0xbfb00a46	-1.3753135
68	0x3fd929ab	1.6965841
69	0x3ec6e27e	0.38844675
70	0xc006a6b7	-2.1039255
71	0xbd16a2f6	-0.036776505
72	0xbfba60a6	-1.4560745
73	0xbf17925e	-0.59207714
74	0x3e6f42d4	0.23365337
75	0xbeb846bd	-0.3599147
76	0x3fa430fa	1.2827446
77	0x3f402075	0.75049525
78	0x3f8420e3	1.0322536
79	0xbf4f75bc	-0.81039023
80	0xbf8bacee	-1.0912149
81	0x3e767b85	0.24070556
82	0xbe0f7bf7	-0.14012133
83	0xbfc898a7	-1.5671586
84	0xbe002294	-0.1251319
85	0x3f4f4908	0.8097081
86	0x3f4b00fb	0.7929837
87	0xbd3fe8a2	-0.046852715
88	0xbeb04291	-0.34425786
89	0x3e5e50ae	0.21710464
90	0xbef7c5a0	-0.48392963
91	0x3e3ccf2b	0.18438403
92	0xbebb77b7	-0.36614773
93	0x3fabd332	1.3423827
94	0x3e44b2f5	0.19208892
95	0x3f10a799	0.56505734
96	0x3f03055c	0.5118005
97	0x3e692775	0.22768958
98	0xbfac9889	-1.348405
99	0x3e5778e1	0.21042205
100	0x3e8fd0e6	0.28089064
101	0xbf1cee03	-0.6130068
102	0x3dcea22a	0.10089524
103	0x3f0bfa2a	0.54678595
104	0x3fc74fd1	1.5571233
105	0xbeaf4f83	-0.3424035
106	0xbecb561a	-0.39714128
107	0x3dd00be7	0.1015852
108	0xbf51a979	-0.8189922
109	0xbfb45690	-1.4088917
110	0xbd6ac966	-0.057320975
111	0x3e4e41e2	0.2014232

mlp.0.weight f4 [128, 160]
0	0xbd188632	-0.037237354
1	0x3d11a6b2	0.035559364
2	0xbdec4228	-0.11536056
3	0xbcf441ec	-0.02981659
4	0xbdc34100	-0.09533882
5	0x3da3879f	0.07984852
6	0xbd48e662	-0.049047835
7	0xbca282ec	-0.019837819
8	0xbc56fb0b	-0.013121377
9	0x3c37faf2	0.011229264
10	0x3d6815ff	0.056661602
11	0xbc850870	-0.016239375
12	0xbd2216ff	-0.039572712
13	0xbd01f081	-0.031723503
14	0xbc0adf80	-0.008476138
15	0x3b7dee5e	0.0038746814
16	0x3d7ec2d8	0.062197536
17	0xbd5f8a74	-0.0545754
18	0x3c79d965	0.015249585
19	0x3da0460d	0.07825861
20	0x3d111f34	0.03543015
21	0x3c5a26b7	0.013314894
22	0xbc19df88	-0.009391673
23	0xbd027f3b	-0.031859618
24	0xbd1360d7	-0.035981026
25	0x3d812437	0.063057356
26	0xbcb6ee15	-0.022330323
27	0x3c7efee3	0.015563699
28	0x3bf82efb	0.00757396
29	0x3baf4ca3	0.005349712
30	0xbcfcdaaf	-0.030865995
31	0x3d44f34d	0.048083592
32	0x3d495d88	0.049161464
33	0x3d7e5210	0.06208998
34	0x3d9952bb	0.07486483
35	0xbd806a47	-0.06270271
36	0x3daa0336	0.08301394
37	0x3cf0540a	0.029336948
38	0xbc9c9b9a	-0.019117165
39	0xbd982def	-0.07430636
40	0xbdcb405e	-0.099243864
41	0xbd227120	-0.039658666
42	0x3c701a77	0.014654747
43	0x3cd34e3f	0.025794147
44	0xbd3ee2ba	-0.046602942
45	0x3cf553d7	0.029947205
46	0xbda4ceb8	-0.08047241
47	0xbd973cb2	-0.073846236
48	0xbd88fcbc	-0.0668883
49	0xbd4a233d	-0.049350012
50	0xbd4a56df	-0.049399253
51	0x3d53f4f0	0.051747262
52	0xbd8861b7	-0.066592626
53	0xbb3a7832	-0.002845299
54	0xbdb443fc	-0.088020295
55	0xbd7cd602	-0.06172753
56	0xbd85f933	-0.065416716
57	0xbd95cca4	-0.07314423
58	0xbcffcc4f	-0.031225352
59	0xbd622a04	-0.05521585
60	0xbcada134	-0.021195032
61	0x3c6ddc5b	0.014517869
62	0xbd7b76b5	-0.061392505
63	0xbd9c50ed	-0.07632623
64	0x3ca32046	0.01991285
65	0xbd518019	-0.051147554
66	0xbd9191b8	-0.07107872
67	0xbdd2d5ed	-0.10294709
68	0xbd814d9d	-0.06313632
69	0x3cd57f6e	0.02606174
70	0xbb8f03b8	-0.004364457
71	0xbd6a73cd	-0.057239342
72	0xbd0b01d1	-0.03393728
73	0x3c50fac9	0.012755104
74	0x3dc87524	0.09787968
75	0xbd96786d	-0.07347188
76	0x3c9b8a53	0.018986857
77	0x3ca79386	0.020456087
78	0x3d0bc360	0.03412187
79	0x3c8fb0fd	0.01754045
80	0xbd52a5d3	-0.051427674
81	0x3d395139	0.045243476
82	0x3cd1f941	0.025631549
83	0xbd6aaf9b	-0.057296377
84	0x3c5c7f2b	0.013458054
85	0xbc047491	-0.008084432
86	0x3b36f211	0.002791528
87	0x3ca20fb5	0.01978288
88	0xbca85ff2	-0.020553563
89	0xbc75a944	-0.014993969
90	0x3aebc05b	0.0017986404
91	0xbd33e04d	-0.04391508
92	0x3d5f8772	0.05457253
93	0x3d1d6990	0.03843075
94	0xbc1254c8	-0.008931346
95	0x3d6986a6	0.057013176
96	0x3d37fc53	0.04491837
97	0xbb3cdb03	-0.0028817065
98	0xbc4527e4	-0.012033436
99	0xbcfe7c40	-0.031065106
100	0x3d1ae866	0.03781929
101	0xbc89ac1d	-0.016805703
102	0xbc2580d3	-0.010101515
103	0x3dc3a73f	0.09553384
104	0x3c274014	0.0102081485
105	0xbcfeae96	-0.031089108
106	0x3d3582d8	0.044314235
107	0xbd9515ca	-0.072795466
108	0xbc2d1d2c	-0.010566037
109	0xbd3fafaa	-0.046798386
110	0xbd26d4bd	-0.040730227
111	0x3d6af938	0.05736658
112	0x3be8b248	0.007101331
113	0x3da9e36b	0.0829533
114	0x3d8a7f11	0.06762517
115	0x3d5e0f24	0.054213658
116	0xbc4e6810	-0.012598053
117	0x3cdd4a7b	0.027013054
118	0xbdb145d2	-0.08655895
119	0xbd916923	-0.07100131
120	0xbd4a3632	-0.04936809
121	0xbc92420a	-0.017853756
122	0xbdb6e847	-0.08931022
123	0xbccb179b	-0.02479153
124	0xbd060f4b	-0.03272943
125	0xbd8e453a	-0.06946798
126	0xbcc7c113	-0.024384057
127	0xbd6a4e00	-0.057203293
128	0xbd48c7b5	-0.04901858
129	0xbdb99da0	-0.09063268
130	0x3c0c7585	0.008572941
131	0xbd142b38	-0.03617403
132	0xbd9b1049	-0.075714655
133	0xbdc4c523	-0.09607913
134	0xbca70fc7	-0.020393265
135	0xbda572d8	-0.08078545
136	0xbdc2065b	-0.094738685
137	0x3d18de26	0.037321232
138	0xbcbdc106	-0.02316333
139	0xbd5a1a12	-0.05324752
140	0xbdc732b7	-0.0972647
141	0x3c4befc9	0.012447306
142	0x3d1e7700	0.038687706
143	0xbd05071f	-0.032477494
144	0x3c99a0cd	0.018753434
145	0xbcaaeba8	-0.020864323
146	0xbdb6ec9e	-0.0893185
147	0xbdaeef0a	-0.08541687
148	0xbd3b4bc8	-0.045726568
149	0xbd7601f9	-0.060060475
150	0x3d3e0cf7	0.046399083
151	0xbc4e4a71	-0.01259099
152	0xbb65862f	-0.0035022607
153	0x3d37fad3	0.04491694
154	0x3b31cb67	0.0027129294
155	0x3d5944e7	0.053044226
156	0xbd7fc56b	-0.06244413
157	0xbd3a5799	-0.045493696
158	0x3c826169	0.01591559
159	0xbdb1c7b2	-0.08680667
160	0x3dcd1d0b	0.10015305
161	0x3d46a323	0.048495423
162	0xbe14dfd2	-0.14538506
163	0xbe0b74ea	-0.13618818
164	0xbd4bc8e9	-0.04975215
165	0x3de0d8ab	0.10978826
166	0xbe4c0847	-0.19925033
167	0x3e78ea7f	0.24308203
168	0x3e22deb8	0.15905273
169	0x3e37bd2b	0.17943256
170	0xbcdfbf74	-0.027312972
171	0xbdf58e59	-0.11990041
172	0xbdf2028b	-0.11816891
173	0xbe1d4774	-0.15359288
174	0x3ca254a8	0.019815758
175	0x3e480900	0.19534683
176	0x3e81487d	0.25250617
177	0x3e963084	0.2933389
178	0x3eaca2e7	0.33718035
179	0xbd2f1caa	-0.042751946
180	0xbe9328f6	-0.28742188
181	0xbc97d9f1	-0.01853654
182	0x3de39787	0.11112886
183	0xbd9ec7e2	-0.07752968
184	0x3ccb9032	0.024849031
185	0x3d391561	0.045186404
186	0xbd70ac7b	-0.05875824
187	0x3e8048b2	0.25055462
188	0xbd7fd26b	-0.06245653
189	0x3d22f574	0.039784864
190	0x3e2ddc67	0.16978608
191	0x3deb8fa2	0.11502005
192	0xbf03bdee	-0.51461685
193	0xbc4c19c5	-0.012457316
194	0x3e82628d	0.25465813
195	0xbda9c6fa	-0.08289905
196	0x3eb6fa71	0.35737947
197	0x3e9ee5a1	0.31034568
198	0xbeb18cb4	-0.3467766
199	0xbef25c0b	-0.47335848
200	0xbd374414	-0.04474266
201	0xbd28d13d	-0.04121517
202	0xbe36e572	-0.17860964
203	0xbdf716ff	-0.12064933
204	0x3d54c5d0	0.05194646
205	0x3d3fd6d9	0.046835754
206	0xbe0bfd71	-0.13670899
207	0x3d2e103e	0.04249596
208	0x3c7d9464	0.015477274
209	0x3d285a8e	0.041101985
210	0xbc9c50f2	-0.019081566
211	0xbe0a35e9	-0.13497128
212	0xbcfbeb09	-0.030751722
213	0xbb8f5238	-0.004373815
214	0xbd990a32	-0.07472648
215	0xbd2ffca2	-0.04296554
216	0xbdd0f04d	-0.10202084
217	0xbd2f7c9b	-0.042843442
218	0xbd1443aa	-0.036197342
219	0xbe1038ee	-0.14084217
220	0xbdbb7f22	-0.09155108
221	0xbc2b3d07	-0.010451562
222	0xbd8365bc	-0.06415889
223	0xbb41a90f	-0.002955023
224	0xbd8a3db8	-0.06750053
225	0xbd1b9dcc	-0.037992284
226	0x3c7dfc68	0.015502073
227	0x3b882274	0.0041544978
228	0xbcbc091f	-0.022953568
229	0x3db8b249	0.0901838
230	0xbd3af5a7	-0.04564443
231	0xbdd0ef13	-0.1020185
232	0xbf245d8e	-0.64205253
233	0xbc63fe85	-0.013915663
234	0x3cabfcc6	0.020994555
235	0x3dcfd6d8	0.101484
236	0x3e2f7fe9	0.17138638
237	0x3d832e93	0.06405368
238	0xbdbfa8cd	-0.09358368
239	0xbe7d0f24	-0.24712807
240	0x3d7f6700	0.062354088
241	0x3e09ee30	0.13469768
242	0xbe6f3a02	-0.23361972
243	0x3d4d7907	0.05016425
244	0xbe3a70b3	-0.18207054
245	0xbe1d0530	-0.1533401
246	0xbd206df2	-0.039167352
247	0xbe23efb1	-0.16009404
248	0xbdeaf3c7	-0.11472278
249	0x3c1bdc9a	0.009513045
250	0x3dde1523	0.10843875
251	0xbcbcfebb	-0.023070684
252	0xbe1e844b	-0.15480153
253	0xbe184e7c	-0.1487369
254	0xbe0ec22e	-0.13941261
255	0x3d243e4a	0.040098466

mlp.0.bias f4 [128]
0	0x3cf0dc21	0.02940184
1	0xbd1fcb9e	-0.039012544
2	0xbd2e225d	-0.04251324
3	0xbe026e9c	-0.12737507
4	0x3b68ae13	0.0035504147
5	0xbd6db30d	-0.058032084
6	0x3bb09e16	0.005389939
7	0x3da11281	0.078648575
8	0xbcdb76be	-0.02679002
9	0xbd013e1a	-0.031553365
10	0xbc3ae27c	-0.011406537
11	0xbcedd05b	-0.029030016
12	0x3c176a3b	0.009241636
13	0xbdc305f8	-0.09522623
14	0x3ba6713c	0.0050794166
15	0xbc8b87c2	-0.017032508
16	0xbdcb9a64	-0.09941557
17	0xbc0fe2b2	-0.008782076
18	0xbda801e5	-0.08203486
19	0x3d014b3f	0.0315659
20	0xbcfa6d6f	-0.03056976
21	0xbd7a8b08	-0.061167747
22	0x3bab04ff	0.0052191014
23	0xbda5a41a	-0.080879405
24	0xbda78758	-0.08180112
25	0x3b9d7bcc	0.0048060175
26	0xbcd50499	-0.026003169
27	0x3c67ec2a	0.014155427
28	0x3d2de99d	0.04245912
29	0xbd36841d	-0.044559587
30	0xbc5ba139	-0.013405138
31	0xbdc1c774	-0.09461871
32	0xbde578a1	-0.11204649
33	0xbd6e6852	-0.058204956
34	0xbd102d6d	-0.03519957
35	0xbdc133b0	-0.09433687
36	0xbd2d6dac	-0.04234092
37	0xbdc96890	-0.09834397
38	0x3d4e8651	0.050421063
39	0xbbcf2605	-0.006321671
40	0xbccbe101	-0.024887564
41	0x3d28052d	0.04102056
42	0xbd3740b3	-0.044739436
43	0xbc9fe061	-0.019516172
44	0x3cf5a9c4	0.029988177
45	0x3bf9ed72	0.0076271826
46	0x3c97c0f9	0.018524634
47	0xbd06b6c8	-0.032889158
48	0xbd8fbbac	-0.070182174
49	0x3d85dd36	0.06536333
50	0xbc907aaf	-0.017636625
51	0x3ce552f0	0.02799365
52	0x3d1517f3	0.036399793
53	0xbc5fb85f	-0.013654797
54	0x3bcd1671	0.0062587787
55	0x3cd125b2	0.02553067
56	0x3d331a2b	0.043726128
57	0xbd88912f	-0.066683166
58	0xbdb71192	-0.08938898
59	0x3d3a376d	0.045463014
60	0x3ba9f2b1	0.005186402
61	0x3d0d4814	0.034492567
62	0xbd9d4140	-0.07678461
63	0xbc770125	-0.0150759565
64	0xbcc84299	-0.024445819
65	0xbdeb9140	-0.115023136
66	0x3c3dac71	0.011576758
67	0xbc606f21	-0.01369837
68	0x3bba83e3	0.0056919917
69	0x3d55b36c	0.052173063
70	0xbc1a36fe	-0.009412525
71	0xbda34367	-0.0797184
72	0xbd5faf38	-0.05461046
73	0x3cd9df1c	0.026595645
74	0x3db1d871	0.08683861
75	0xbde6e30b	-0.11273774
76	0x3d5c506e	0.05378764
77	0x3d9e9749	0.07743699
78	0xbd582471	-0.05276913
79	0x3c97c6b4	0.018527366
80	0xbd975704	-0.07389644
81	0xbcfd823d	-0.030945892
82	0x3d1e3b38	0.038630694
83	0xbd55d196	-0.05220183
84	0xbdaaf94d	-0.083483316
85	0xbda5937c	-0.08084771
86	0x3d9cb065	0.07650832
87	0xbd4f2d83	-0.050580513
88	0xbd8de923	-0.06929233
89	0xbd0d6b8d	-0.034526397
90	0x3c96e95f	0.018421827
91	0x3d60673f	0.054785963
92	0xbde35076	-0.11099331
93	0x3b8e5d6c	0.004344633
94	0x3d89e5a9	0.06733257
95	0xbcb9c38b	-0.02267625
96	0x3c13039e	0.00897303
97	0xbd5ab968	-0.053399473
98	0xbdb6671d	-0.08906386
99	0x3c3f5879	0.011678808
100	0x3cfd1232	0.030892465
101	0xbcc5a3cf	-0.024125962
102	0xbd40884f	-0.047004994
103	0xbd8b51c0	-0.06802702
104	0x3d252377	0.040317025
105	0x3bd88b14	0.0066083763
106	0x3d41c767	0.047309306
107	0xbd39827f	-0.045290466
108	0xbde9d0d8	-0.11416787
109	0xbdcf113f	-0.10110711
110	0xbdcad403	-0.09903719
111	0xbbc0f9cf	-0.0058891545
112	0xbd9b7183	-0.0759001
113	0xbc9ad008	-0.018898025
114	0x3c6b4d02	0.014361622
115	0x3c332edd	0.010936466
116	0xbd7c161f	-0.061544534
117	0x3c88b766	0.016689014
118	0xbc1dabe5	-0.009623502
119	0xbd25e870	-0.040504873
120	0x3d000fda	0.031265117
121	0x3c873afe	0.016507622
122	0x3c293bfc	0.010329243
123	0xbc8d9cbb	-0.017286649
124	0xbd87d352	-0.06632103
125	0xbb62c320	-0.0034601167
126	0xbb2bec92	-0.0026233536
127	0x39d34ad5	0.0004030081

mlp.3.weight f4 [64, 128]
0	0xbd1d5993	-0.038415503
1	0xbe955045	-0.29162803
2	0xbde74b1d	-0.112936236
3	0x3dbeb3ed	0.09311662
4	0x3cfbb6d3	0.030726826
5	0xbe0126e1	-0.12612487
6	0xbed8280d	-0.42218056
7	0x3e97926d	0.29603902
8	0xbc9d46aa	-0.019198734
9	0xbd0df702	-0.034659393
10	0xbc9201eb	-0.01782318
11	0x3c04b69c	0.008100178
12	0xbe19cb59	-0.15018977
13	0x3ea11288	0.3145945
14	0xbc0184b5	-0.007905175
15	0x3d647f31	0.05578536
16	0x3a23c9ba	0.0006248016
17	0xbdfb99f3	-0.12285223
18	0xbdbd97d7	-0.09257477
19	0x3da33f4a	0.07971056
20	0xbd60a8a2	-0.05484832
21	0xbdef97b8	-0.1169886
22	0xbc8fade8	-0.01753898
23	0xbd901c50	-0.0703665
24	0x3d07553c	0.03304027
25	0xbd4086c6	-0.04700353
26	0xbe5875bb	-0.2113866
27	0x3d0402e1	0.032229308
28	0xbe429616	-0.19002566
29	0xbe859773	-0.2609211
30	0xbda8cc2a	-0.08242066
31	0x3c500f65	0.012698983
32	0x3de4a591	0.11164392
33	0xbd3dda69	-0.04635087
34	0x3c48a202	0.012245657
35	0xbbb41b4a	-0.005496417
36	0x3e54c267	0.20777284
37	0x3dcd4350	0.100226045
38	0x3d3733e2	0.044727214
39	0x3d7131c7	0.058885362
40	0x3cd43cea	0.025907952
41	0x3ce4e7a7	0.027942492
42	0xbd8f0389	-0.06983096
43	0xbc21787a	-0.009855384
44	0x3d89ba8d	0.06725035
45	0x3ca7194b	0.020397803
46	0xbe784035	-0.24243243
47	0xbd853f39	-0.065061994
48	0xbd90c21f	-0.07068276
49	0xbdacb94f	-0.08433782
50	0x3ea2a92c	0.31769693
51	0x3d4167d5	0.047218163
52	0xbc8bda1b	-0.017071774
53	0xbd98cf14	-0.07461372
54	0x3dc3bce6	0.09557514
55	0xbe6ed55f	-0.23323582
56	0xbc8d3638	-0.017237768
57	0x3e60f9ba	0.21970263
58	0xbd1ee3a4	-0.038791314
59	0x3d6ea5ad	0.05826347
60	0x3d3601d2	0.04443533
61	0x3d6ad1d8	0.05732903
62	0x3d00893f	0.031380888
63	0x3d930be2	0.07180001
64	0xbcece8f8	-0.028919682
65	0xbf46a33c	-0.77592826
66	0x3cb91364	0.022592254
67	0xbd1549ee	-0.036447458
68	0xbea61fab	-0.32446036
69	0xbcbaafa9	-0.02278884
70	0x3dce7303	0.100805305
71	0x3db959d8	0.090503395
72	0x3e5992a5	0.21247347
73	0x3d88b1c6	0.066745326
74	0x3d2a93b5	0.04164477
75	0xbd85f58c	-0.06540975
76	0xbe6a2c2d	-0.22868414
77	0x3ed89d08	0.42307305
78	0x3e50d984	0.20395476
79	0x3d20e8ec	0.03928463
80	0xbed10615	-0.40824953
81	0xbccbffd1	-0.024902256
82	0xbdbe428f	-0.09290039
83	0xbe297b21	-0.16550876
84	0xbda8cd57	-0.082422905
85	0xbf36e8d3	-0.7144901
86	0xbd9290f3	-0.07156553
87	0x3c448e88	0.011996873
88	0xbd542778	-0.051795453
89	0xbda5a1c8	-0.08087498
90	0x3e919e05	0.28440872
91	0xbe322b21	-0.17399265
92	0x3b841222	0.004030482
93	0xbe20a754	-0.1568883
94	0x3d38bef4	0.045103982
95	0x3d098cb5	0.033581454
96	0x3897b33d	7.233627e-05
97	0x3eaf0ca6	0.34189337
98	0xbd80959a	-0.06278534
99	0xbda725fb	-0.08161541
100	0xbdc10d74	-0.09426394
101	0xbdc2deca	-0.0951515
102	0x3dc8113e	0.09768914
103	0xbd2fa727	-0.04288402
104	0xbdace83e	-0.08442734
105	0x3c35601d	0.0110702785
106	0x3cb15b7c	0.021650068
107	0x3e8a23b7	0.26980373
108	0xbd81cfa7	-0.06338435
109	0xbd42cb30	-0.047557056
110	0xbd61c4b8	-0.055119246
111	0xbd9a3c37	-0.07531016
112	0x3e1d5b91	0.15366961
113	0x3e057046	0.1303111
114	0xbd508c27	-0.05091491
115	0x3d610679	0.054937813
116	0x3d046a74	0.032328084
117	0xbd0c0c68	-0.03419152
118	0x3c85826d	0.016297543
119	0x3c632f99	0.013866329
120	0xbd2be5a1	-0.041967038
121	0x39b91b00	0.00035306066
122	0x3b0355ca	0.0020040148
123	0x3cce2dec	0.025168382
124	0x3c05917a	0.00815236
125	0x3e5ae869	0.2137772
126	0xbcb86b3f	-0.022512076
127	0xbc44409b	-0.011978294
128	0x3cdcb405	0.026941309
129	0xbe88de20	-0.26731968
130	0xbd22fc17	-0.039791193
131	0x3e0fddbb	0.14049427
132	0x3e00d505	0.1258126
133	0xbd72f9f0	-0.05932039
134	0xbedfd9d6	-0.43720883
135	0x3e2020f2	0.15637568
136	0xbe5eb4f0	-0.2174871
137	0x3d8000c0	0.06250143
138	0x3ce4a136	0.027908903
139	0x3d081cf6	0.033230744
140	0x3e708b3f	0.23490618
141	0x3e3a4997	0.18192135
142	0x3d8a60af	0.06756722
143	0xbc9fe161	-0.019516649
144	0xbe30170f	-0.17196296
145	0xbba9a48b	-0.0051770858
146	0xbe8e625b	-0.27809414
147	0x3c036f1c	0.008022096
148	0xbe846e98	-0.25865626
149	0xbda64ba2	-0.081198946
150	0xbd2fa082	-0.04287768
151	0xbc1f14fb	-0.009709592
152	0x3cce5530	0.025187105
153	0x3d6f8518	0.058476537
154	0xbd7f2bcb	-0.062297624
155	0xbdc2b6ac	-0.09507498
156	0x3d6ea97e	0.05826711
157	0x3bcc2c32	0.0062308544
158	0xbd0dd17a	-0.0346236
159	0xbdd6df34	-0.10491791
160	0x3d940d9a	0.07229157
161	0xbd8829c3	-0.066485904
162	0x3d802a52	0.06258072
163	0xbd496b30	-0.049174488
164	0x3d98175d	0.07426331
165	0xbe6c9cc6	-0.2310668
166	0xbe2ba7a6	-0.16763172
167	0xbc9316d4	-0.017955221
168	0x3c3a452f	0.011369034
169	0x3d412f0d	0.04716401
170	0x3e18bfd3	0.14916925
171	0x3d54db80	0.051967144
172	0x3d7b45e3	0.061345946
173	0xbdb3d49d	-0.08780787
174	0x3dd97999	0.10618896
175	0xbe4f2b11	-0.20231272
176	0xbda73658	-0.08164662
177	0xbe0a664e	-0.13515589
178	0x3e9ab35c	0.30214965
179	0x3c3f94b2	0.011693167
180	0x3c6194eb	0.013768415
181	0xbd047b7f	-0.032344338
182	0xbb4b2c99	-0.0031001924
183	0xbe07ae0a	-0.13249984
184	0xbddfc11f	-0.10925507
185	0xbc8e378c	-0.017360471
186	0xbe551ff2	-0.20812967
187	0x3d60cdef	0.054883894
188	0x3d7b66dc	0.06137739
189	0x3d67c0ff	0.05658054
190	0xbddf8d3f	-0.109156124
191	0xbdba6dd6	-0.09102981
192	0x3db84bc7	0.089988284
193	0xbf0b41b3	-0.54397124
194	0x3dbd1e11	0.0923425
195	0x3d822072	0.06353845
196	0xbe596d2e	-0.21233055
197	0x3e2e91f5	0.17047866
198	0x3d75e7f9	0.06003568
199	0x3d8e6a38	0.06953853
200	0x3d0ad831	0.033897582
201	0xbd695fd2	-0.056976147
202	0xbe7edb05	-0.24888237
203	0xbce4a527	-0.027910782
204	0xbdce881e	-0.10084556
205	0x3d6b9c8b	0.057522338
206	0x3b90811b	0.004409922
207	0x3c779b2c	0.015112679
208	0xbe91db2b	-0.28487524
209	0xbd6c62f0	-0.05771154
210	0xbe9ae555	-0.3025309
211	0xbdcfeb60	-0.10152316
212	0xbe18349c	-0.14863819
213	0xbefac41e	-0.4897775
214	0xbc61dd63	-0.013785693
215	0xbcb90d74	-0.022589423
216	0xbe265183	-0.16242032
217	0x3d960c46	0.0732656
218	0x3e171865	0.147554
219	0xbd5e1c44	-0.054226175
220	0x3ca9e24d	0.020737791
221	0xbd9d601a	-0.076843455
222	0xbdd4f7c7	-0.10398822
223	0x3d29d4d9	0.041462753
224	0xbd0b8850	-0.034065545
225	0x3e847766	0.25872344
226	0x3d464e6c	0.048414633
227	0xbe10e014	-0.14147979
228	0x3e5032a0	0.20331812
229	0x3e04c70a	0.12966552
230	0xbdcbe705	-0.09956173
231	0x3d05ee5f	0.03269803
232	0xbda6559a	-0.08121796
233	0xbdf5c057	-0.119995765
234	0x3c650ec1	0.013980568
235	0x3ddde6b1	0.108350165
236	0xbdb15672	-0.08659066
237	0xbd86b063	-0.06576612
238	0x3dd5170a	0.10404785
239	0x3d54e475	0.051975686
240	0xbdea56b5	-0.11442319
241	0x3dae970d	0.085249044
242	0xbd720764	-0.05908908
243	0x3c2720b8	0.010200672
244	0xbd82534d	-0.063635446
245	0xbdbc8297	-0.092045955
246	0xbdb88946	-0.09010558
247	0x3c9b4ef5	0.018958548
248	0x3e018b87	0.12650882
249	0xbbbc6add	-0.005750044
250	0xbd95f0a9	-0.07321293
251	0xbd9b8862	-0.07594372
252	0x3c7f3a0c	0.015577804
253	0x3dccba76	0.09996502
254	0x3ca11a9e	0.019666012
255	0xbd910302	-0.07080652

mlp.3.bias f4 [64]
0	0xbd3a7750	-0.04552394
1	0x3ebd7083	0.36999902
2	0x3e0b2993	0.13590078
3	0xbd7b13d1	-0.061298195
4	0x3e9e08d6	0.30866116
5	0x3d8d4887	0.06898599
6	0x3d817c3f	0.06322526
7	0x3dcd0914	0.10011497
8	0xbc6aca55	-0.014330466
9	0xbdfe310f	-0.12411701
10	0x3e0e375d	0.13888307
11	0x3c10edc4	0.00884575
12	0x3e811f07	0.25218984
13	0x3d1bb8f5	0.038018186
14	0xbe2c161b	-0.16805308
15	0x3e9065e6	0.28202742
16	0x3cfa3ad7	0.030545635
17	0x3ebd693b	0.36994347
18	0x3e7743f4	0.24147016
19	0x3d562263	0.052278887
20	0x3e01dd2b	0.12682025
21	0xbd7593c8	-0.05995539
22	0x3dbff185	0.09372238
23	0xbdac74fd	-0.08420751
24	0xbd80e666	-0.06293945
25	0x3b9f3478	0.0048585497
26	0xbe3eba97	-0.18625866
27	0x3e9ed154	0.3101908
28	0x3d826f84	0.06368926
29	0xbdbfec22	-0.09371211
30	0x3dd31ce5	0.103082456
31	0xbded1478	-0.1157617
32	0x3da2c87b	0.07948395
33	0x3ea36c95	0.3191878
34	0x3eb035c2	0.34416014
35	0x3e797ff7	0.24365221
36	0xbaad3ab1	-0.0013216344
37	0x3c99564f	0.018717913
38	0x3e7deeb5	0.24798091
39	0x3e113f9d	0.14184423
40	0x3e365691	0.1780646
41	0x3bb7f071	0.0056133796
42	0xbdf9ba7a	-0.12193771
43	0x3bb605ec	0.005554905
44	0xbda72ad8	-0.08162469
45	0x3e935119	0.2877281
46	0x3e17c27a	0.1482028
47	0x3d5762fb	0.05258463
48	0x3dc9c0be	0.09851216
49	0x3e97d3fc	0.2965392
50	0xbc8df85a	-0.017330337
51	0x3d9e0bb6	0.077170774
52	0x3ddf051b	0.10889646
53	0x3e19f512	0.15034893
54	0x3e0dc523	0.13844733
55	0xbd09ec6d	-0.03367274
56	0x3eab6868	0.33478093
57	0x3e82801b	0.25488362
58	0x3e359cfd	0.17735668
59	0xbfa7750a	-1.3082592
60	0xbd87b5db	-0.06626483
61	0x3e0dae16	0.1383594
62	0x3dbbfaa1	0.09178663
63	0x3dd6aadd	0.10481808

mlp.6.weight f4 [1, 64]
0	0xbd74b8db	-0.059746604
1	0xbd06fa1c	-0.032953367
2	0x3d33eefe	0.043929093
3	0xbd8c2d8b	-0.06844624
4	0xbd18fbf6	-0.037349664
5	0x3d2a98ea	0.041649736
6	0xbd86efe2	-0.06588723
7	0xbdccd0e4	-0.1000078
8	0x3daa4772	0.08314408
9	0xbde96a87	-0.113972716
10	0x3d093df2	0.03350634
11	0xbd2535e6	-0.040334605
12	0x3cd2fa9f	0.025754271
13	0xbd78fc88	-0.060787708
14	0x3dbdb2a3	0.09262588
15	0xbd0ab91d	-0.033867944
16	0xbd9f8a9c	-0.077901095
17	0xbceae084	-0.02867151
18	0x3d390325	0.045169014
19	0x3da35f37	0.07977145
20	0x3d8e1f5d	0.06939576
21	0xbd987ad8	-0.074453056
22	0x3d9930d3	0.074800156
23	0x3dcc487f	0.09974765
24	0xbd97fe5b	-0.07421561
25	0x3d81faa2	0.063466325
26	0xbdc9a13a	-0.09845205
27	0xbd2f9eed	-0.042876173
28	0x3db9f2c0	0.09079504
29	0xbd3309a0	-0.04371035
30	0xbd15c185	-0.036561508
31	0x3df1c4a0	0.11805081
32	0x3d352486	0.044224285
33	0xbd3e329c	-0.046434984
34	0xbcf1e7af	-0.02952942
35	0x3d2cf0f0	0.042221963
36	0x3d9a3cd6	0.07531135
37	0x3d5af42a	0.05345551
38	0xbd9fa209	-0.07794578
39	0xbd3e66cc	-0.046484753
40	0x3d06c172	0.032899328
41	0xbd3c1bfe	-0.045925133
42	0xbd93226a	-0.07184298
43	0xbd06cf45	-0.03291251
44	0xbdad210a	-0.08453567
45	0xbd3f039c	-0.0466343
46	0xbd690536	-0.056889735
47	0x3d0fb99d	0.035089124
48	0x3d10b3b2	0.03532762
49	0xbd001458	-0.0312694
50	0xbd5e9693	-0.054342818
51	0x3d5c8dbd	0.05384611
52	0xbd740997	-0.059579458
53	0xbd209e04	-0.039213195
54	0x3d07be88	0.03314069
55	0x3d87093f	0.065935604
56	0xbd23ed3b	-0.040021162
57	0x3d05d9c3	0.032678377
58	0x3d3ae1ef	0.045625623
59	0x3f168d2a	0.5880915
60	0xbdc48f83	-0.09597685
61	0x3d9140f5	0.07092468
62	0xbd119316	-0.035540663
63	0x3d92592e	0.07145916
